…
aryEmbedding()\n        )\n        (mlp): Qwen2MLP(\n          (gate_proj): Linear4bit(in_features=8192, out_features=29568, bias=False)\n          (up_proj): Linear4bit(in_features=8192, out_features=29568, bias=False)\n          (down_proj): Linear4bit(in_features=29568, out_features=8192, bias=False)\n          (act_fn): SiLU()\n        )\n        (input_layernorm): Qwen2RMSNorm((8192,), eps=1e-06)\n        (post_attention_layernorm): Qwen2RMSNorm((8192,), eps=1e-06)\n      )\n    )\n    (norm): Qwen2RMSNorm((8192,), eps=1e-06)\n    (rotary_emb): Qwen2_5_VLRotaryEmbedding()\n  )\n  (lm_head): Linear(in_features=8192, out_features=152064, bias=False)\n)\n\n\n\nimport os\nos.environ['CUDA_VISIBLE_DEVICES'] = '3'\n\nfrom transformers import BitsAndBytesConfig\nimport torch\nfrom transformers import PaliGemmaForConditionalGeneration\n\nbnb_config = BitsAndBytesConfig(\n                load_in_4bit=True,\n                # bnb_4bit_use_double_quant=True,\n                bnb_4bit_quant_type=\"nf4\",\n                bnb_4bit_compute_type=torch.bfloat16,)\n\nmodel = PaliGemmaForConditionalGeneration.from_pretrained(\"google/paligemma2-3b-pt-448\", torch_dtype=torch.bfloat16, device_map=\"auto\")\nmodel.get_memory_footprint()\n\n\n\n\n6066263008\n\n\n\nmodel\n\nPaliGemmaForConditionalGeneration(\n  (vision_tower): SiglipVisionModel(\n    (vision_model): SiglipVisionTransformer(\n      (embeddings): SiglipVisionEmbeddings(\n        (patch_embedding): Conv2d(3, 1152, kernel_size=(14, 14), stride=(14, 14), padding=valid)\n        (position_embedding): Embedding(1024, 1152)\n      )\n      (encoder): SiglipEncoder(\n        (layers): ModuleList(\n          (0-26): 27 x SiglipEncoderLayer(\n            (self_attn): SiglipSdpaAttention(\n              (k_proj): Linear(in_features=1152, out_features=1152, bias=True)\n              (v_proj): Linear(in_features=1152, out_features=1152, bias=True)\n              (q_proj): Linear(in_features=1152, out_features=1152, bias=True)\n              (out_proj): Linear(in_features=1152, out_features=1152, bias=True)\n            )\n            (layer_norm1): LayerNorm((1152,), eps=1e-06, elementwise_affine=True)\n            (mlp): SiglipMLP(\n              (activation_fn): PytorchGELUTanh()\n              (fc1): Linear(in_features=1152, out_features=4304, bias=True)\n              (fc2): Linear(in_features=4304, out_features=1152, bias=True)\n            )\n            (layer_norm2): LayerNorm((1152,), eps=1e-06, elementwise_affine=True)\n          )\n        )\n      )\n      (post_layernorm): LayerNorm((1152,), eps=1e-06, elementwise_affine=True)\n    )\n  )\n  (multi_modal_projector): PaliGemmaMultiModalProjector(\n    (linear): Linear(in_features=1152, out_features=2304, bias=True)\n  )\n  (language_model): Gemma2ForCausalLM(\n    (model): Gemma2Model(\n      (embed_tokens): Embedding(257216, 2304, padding_idx=0)\n      (layers): ModuleList(\n        (0-25): 26 x Gemma2DecoderLayer(\n          (self_attn): Gemma2Attention(\n            (q_proj): Linear(in_features=2304, out_features=2048, bias=False)\n            (k_proj): Linear(in_features=2304, out_features=1024, bias=False)\n            (v_proj): Linear(in_features=2304, out_features=1024, bias=False)\n            (o_proj): Linear(in_features=2048, out_features=2304, bias=False)\n          )\n          (mlp): Gemma2MLP(\n            (gate_proj): Linear(in_features=2304, out_features=9216, bias=False)\n            (up_proj): Linear(in_features=2304, out_features=9216, bias=False)\n            (down_proj): Linear(in_features=9216, out_features=2304, bias=False)\n            (act_fn): PytorchGELUTanh()\n          )\n          (input_layernorm): Gemma2RMSNorm((2304,), eps=1e-06)\n          (post_attention_layernorm): Gemma2RMSNorm((2304,), eps=1e-06)\n          (pre_feedforward_layernorm): Gemma2RMSNorm((2304,), eps=1e-06)\n          (post_feedforward_layernorm): Gemma2RMSNorm((2304,), eps=1e-06)\n        )\n      )\n      (norm): Gemma2RMSNorm((2304,), eps=1e-06)\n      (rotary_emb): Gemma2RotaryEmbedding()\n    )\n    (lm_head): Linear(in_features=2304, out_features=257216, bias=False)\n  )\n)\n\n\n\nimport os\nos.environ['CUDA_VISIBLE_DEVICES'] = '3'\n\nimport torch\nfrom transformers import AutoModelForCausalLM \n\nmodel = AutoModelForCausalLM.from_pretrained(\"microsoft/Florence-2-large-ft\", torch_dtype=\"auto\", trust_remote_code=True)\nmodel.get_memory_footprint()\n\nFlorence2LanguageForConditionalGeneration has generative
…
el with an auto class. See https://huggingface.co/docs/transformers/en/model_doc/auto#auto-classes\n  - If you are the owner of the model architecture code, please modify your model class such that it inherits from `GenerationMixin` (after `PreTrainedModel`, otherwise you'll get an exception).\n  - If you are not the owner of the model architecture class, please contact the model code owner to update it.\n\n\n1645899954\n\n\n\nmodel.dtype\n\ntorch.float16\n\n\n\nmodel\n\nFlorence2ForConditionalGeneration(\n  (vision_tower): DaViT(\n    (convs): ModuleList(\n      (0): ConvEmbed(\n        (proj): Conv2d(3, 256, kernel_size=(7, 7), stride=(4, 4), padding=(3, 3))\n        (norm): LayerNorm((256,), eps=1e-05, elementwise_affine=True)\n      )\n      (1): ConvEmbed(\n        (proj): Conv2d(256, 512, kernel_size=(3, 3), stride=(2, 2), padding=(1, 1))\n        (norm): LayerNorm((256,), eps=1e-05, elementwise_affine=True)\n      )\n      (2): ConvEmbed(\n        (proj): Conv2d(512, 1024, kernel_size=(3, 3), stride=(2, 2), padding=(1, 1))\n        (norm): LayerNorm((512,), eps=1e-05, elementwise_affine=True)\n      )\n      (3): ConvEmbed(\n        (proj): Conv2d(1024, 2048, kernel_size=(3, 3), stride=(2, 2), padding=(1, 1))\n        (norm): LayerNorm((1024,), eps=1e-05, elementwise_affine=True)\n      )\n    )\n    (blocks): ModuleList(\n      (0): MySequential(\n        (0): MySequential(\n          (spatial_block): SpatialBlock(\n            (conv1): PreNorm(\n              (fn): DepthWiseConv2d(\n                (dw): Conv2d(256, 256, kernel_size=(3, 3), stride=(1, 1), padding=(1, 1), groups=256)\n              )\n            )\n            (window_attn): PreNorm(\n              (norm): LayerNorm((256,), eps=1e-05, elementwise_affine=True)\n              (fn): WindowAttention(\n                (qkv): Linear(in_features=256, out_features=768, bias=True)\n                (proj): Linear(in_features=256, out_features=256, bias=True)\n                (softmax): Softmax(dim=-1)\n              )\n              (drop_path): Identity()\n            )\n            (conv2): PreNorm(\n              (fn): DepthWiseConv2d(\n                (dw): Conv2d(256, 256, kernel_size=(3, 3), stride=(1, 1), padding=(1, 1), groups=256)\n              )\n            )\n            (ffn): PreNorm(\n              (norm): LayerNorm((256,), eps=1e-05, elementwise_affine=True)\n              (fn): Mlp(\n                (net): Sequential(\n                  (fc1): Linear(in_features=256, out_features=1024, bias=True)\n                  (act): GELU(approximate='none')\n                  (fc2): Linear(in_features=1024, out_features=256, bias=True)\n                )\n              )\n              (drop_path): Identity()\n            )\n          )\n          (channel_block): ChannelBlock(\n            (conv1): PreNorm(\n              (fn): DepthWiseConv2d(\n                (dw): Conv2d(256, 256, kernel_size=(3, 3), stride=(1, 1), padding=(1, 1), groups=256)\n              )\n            )\n            (channel_attn): PreNorm(\n              (norm): LayerNorm((256,), eps=1e-05, elementwise_affine=True)\n              (fn): ChannelAttention(\n                (qkv): Linear(in_features=256, out_features=768, bias=True)\n                (proj): Linear(in_features=256, out_features=256, bias=True)\n              )\n              (drop_path): DropPath(drop_prob=0.004)\n            )\n            (conv2): PreNorm(\n              (fn): DepthWiseConv2d(\n                (dw): Conv2d(256, 256, kernel_size=(3, 3), stride=(1, 1), padding=(1, 1), groups=256)\n              )\n            )\n            (ffn): PreNorm(\n              (norm): LayerNorm((256,), eps=1e-05, elementwise_affine=True)\n              (fn): Mlp(\n                (net): Sequential(\n                  (fc1): Linear(in_features=256, out_features=1024, bias=True)\n                  (act): GELU(approximate='none')\n                  (fc2): Linear(in_features=1024, out_features=256, bias=True)\n                )\n              )\n              (drop_path): DropPath(drop_prob=0.004)\n            )\n          )\n        )\n      )\n      (1): MySequential(\n        (0): MySequential(\n          (spatial_block): SpatialBlock(\n            (conv1): PreNorm(\n              (fn): DepthWiseConv2d(\n                (dw): Conv2d(512, 512, kernel_size=(3, 3), stride=(1, 1), padding=(1, 1), groups=512)\n              )\n            )\n            (window_attn): PreNorm(\n              (norm): LayerNorm((512,), eps=1e-05, elementwise_affine=True)\n              (fn): WindowAttention(\n                (qkv): Linear(in_features=512, out_features=1536, bias=True)\n                (proj): Linear(in_features=512, out_features=512, bias=True)\n                (softmax): Softmax(dim=-1)\n              )\n              (drop_path): DropPath(drop_prob=0.009)\n            )\n            (conv2): PreNorm(\n              (fn): DepthWiseConv2d(\n                (dw): Conv2d(512, 512, kernel_size=(3, 3), stride=(1, 1), padding=(1, 1), groups=512)\n              )\n            )\n            (ffn): PreNorm(\n              (norm): LayerNorm((512,), eps=1e-05, elementwise_affine=True)\n              (fn): Mlp(\n                (net): Sequential(\n                  (fc1): Linear(in_features=512, out_features=2048, bias=True)\n                  (act): GELU(approximate='none')\n                  (fc2): Linear(in_features=2048, out_features=512, bias=True)\n                )\n              )\n              (drop_path): DropPath(drop_prob=0.009)\n            )\n          )\n          (channel_block): ChannelBlock(\n            (conv1): PreNorm(\n              (fn): DepthWiseConv2d(\n                (dw): Conv2d(512, 512, kernel_size=(3, 3), stride=(1, 1), padding=(1, 1), groups=512)\n              )\n            )\n            (channel_attn): PreNorm(\n              (norm): LayerNorm((512,), eps=1e-05, elementwise_affine=True)\n              (fn): ChannelAttention(\n                (qkv): Linear(in_features=512, out_features=1536, bias=True)\n                (proj): Linear(in_features=512, out_features=512, bias=True)\n              )\n              (drop_path): DropPath(drop_prob=0.013)\n            )\n            (conv2): PreNorm(\n              (fn): DepthWiseConv2d(\n                (dw): Conv2d(512, 512, kernel_size=(3, 3), stride=(1, 1), padding=(1, 1), groups=512)\n              )\n            )\n            (ffn): PreNorm(\n              (norm): LayerNorm((512,), eps=1e-05, elementwise_affine=True)\n              (fn): Mlp(\n                (net): Sequential(\n                  (fc1): Linear(in_features=512, out_features=2048, bias=True)\n                  (act): GELU(approximate='none')\n                  (fc2): Linear(in_features=2048, out_features=512, bias=True)\n                )\n              )\n              (drop_path): DropPath(drop_prob=0.013)\n            )\n          )\n        )\n      )\n      (2): MySequential(\n        (0): MySequential(\n          (spatial_block): SpatialBlock(\n            (conv1): PreNorm(\n              (fn): DepthWiseConv2d(\n                (dw): Conv2d(1024, 1024, kernel_size=(3, 3), stride=(1, 1), padding=(1, 1), groups=1024)\n              )\n            )\n            (window_attn): PreNorm(\n              (norm): LayerNorm((1024,), eps=1e-05, elementwise_affine=True)\n              (fn): WindowAttention(\n                (qkv): Linear(in_features=1024, out_features=3072, bias=True)\n                (proj): Linear(in_features=1024, out_features=1024, bias=True)\n                (softmax): Softmax(dim=-1)\n              )\n              (drop_path): DropPath(drop_prob=0.017)\n            )\n            (conv2): PreNorm(\n              (fn): DepthWiseConv2d(\n                (dw): Conv2d(1024, 1024, kernel_size=(3, 3), stride=(1, 1), padding=(1, 1), groups=1024)\n              )\n            )\n            (ffn): PreNorm(\n              (norm): LayerNorm((1024,), eps=1e-05, elementwise_affine=True)\n              (fn): Mlp(\n                (net): Sequential(\n                  (fc1): Linear(in_features=1024, out_features=4096, bias=True)\n                  (act): GELU(approximate='none')\n                  (fc2): Linear(in_features=4096, out_features=1024, bias=True)\n                )\n              )\n              (drop_path): DropPath(drop_prob=0.017)\n            )\n          )\n          (channel_block): ChannelBlock(\n            (conv1): PreNorm(\n              (fn): DepthWiseConv2d(\n                (dw): Conv2d(1024, 1024, kernel_size=(3, 3), stride=(1, 1), padding=(1, 1), groups=1024)\n              )\n            )\n            (channel_attn): PreNorm(\n              (norm): LayerNorm((1024,), eps=1e-05, elementwise_affine=True)\n              (fn): ChannelAttention(\n                (qkv): Linear(in_features=1024, out_features=3072, bias=True)\n                (proj): Linear(in_features=1024, out_features=1024, bias=True)\n              )\n              (drop_path): DropPath(drop_prob=0.022)\n            )\n            (conv2): PreNorm(\n              (fn): DepthWiseConv2d(\n                (dw): Conv2d(1024, 1024, kernel_size=(3, 3), stride=(1, 1), padding=(1, 1), groups=1024)\n              )\n            )\n            (ffn): PreNorm(\n              (norm): LayerNorm((1024,), eps=1e-05, elementwise_affine=True)\n              (fn): Mlp(\n                (net): Sequential(\n                  (fc1): Linear(in_features=1024, out_features=4096, bias=True)\n                  (act): GELU(approximate='none')\n                  (fc2): Linear(in_features=4096, out_features=1024, bias=True)\n                )\n              )\n              (drop_path): DropPath(drop_prob=0.022)\n            )\n          )\n        )\n        (1): MySequential(\n          (spatial_block): SpatialBlock(\n            (conv1): PreNorm(\n              (fn): DepthWiseConv2d(\n                (dw): Conv2d(1024, 1024, kernel_size=(3, 3), stride=(1, 1), padding=(1, 1), groups=1024)\n              )\n            )\n            (window_attn): PreNorm(\n              (norm): LayerNorm((1024,), eps=1e-05, elementwise_affine=True)\n              (fn): WindowAttention(\n                (qkv): Linear(in_features=1024, out_features=3072, bias=True)\n                (proj): Linear(in_features=1024, out_features=1024, bias=True)\n                (softmax): Softmax(dim=-1)\n              )\n              (drop_path): DropPath(drop_prob=0.026)\n            )\n            (conv2): PreNorm(\n              (fn): DepthWiseConv2d(\n                (dw): Conv2d(1024, 1024, kernel_size=(3, 3), stride=(1, 1), padding=(1, 1), groups=1024)\n              )\n            )\n            (ffn): PreNorm(\n              (norm): LayerNorm((1024,), eps=1e-05, elementwise_affine=True)\n              (fn): Mlp(\n                (net): Sequential(\n                  (fc1): Linear(in_features=1024, out_features=4096, bias=True)\n                  (act): GELU(approximate='none')\n                  (fc2): Linear(in_features=4096, out_features=1024, bias=True)\n                )\n              )\n              (drop_path): DropPath(drop_prob=0.026)\n            )\n          )\n          (channel_block): ChannelBlock(\n            (conv1): PreNorm(\n              (fn): DepthWiseConv2d(\n                (dw): Conv2d(1024, 1024, kernel_size=(3, 3), stride=(1, 1), padding=(1, 1), groups=1024)\n              )\n            )\n            (channel_attn): PreNorm(\n              (norm): LayerNorm((1024,), eps=1e-05, elementwise_affine=True)\n              (fn): ChannelAttention(\n                (qkv): Linear(in_features=1024, out_features=3072, bias=True)\n                (proj): Linear(in_features=1024, out_features=1024, bias=True)\n              )\n              (drop_path): DropPath(drop_prob=0.030)\n            )\n            (conv2): PreNorm(\n              (fn): DepthWiseConv2d(\n                (dw): Conv2d(1024, 1024, kernel_size=(3, 3), stride=(1, 1), padding=(1, 1), groups=1024)\n              )\n            )\n            (ffn): PreNorm(\n              (norm): LayerNorm((1024,), eps=1e-05, elementwise_affine=True)\n              (fn): Mlp(\n                (net): Sequential(\n                  (fc1): Linear(in_features=1024, out_features=4096, bias=True)\n                  (act): GELU(approximate='none')\n                  (fc2): Linear(in_features=4096, out_features=1024, bias=True)\n                )\n              )\n              (drop_path): DropPath(drop_prob=0.030)\n            )\n          )\n        )\n        (2): MySequential(\n          (spatial_block): SpatialBlock(\n            (conv1): PreNorm(\n              (fn): DepthWiseConv2d(\n                (dw): Conv2d(1024, 1024, kernel_size=(3, 3), stride=(1, 1), padding=(1, 1), groups=1024)\n              )\n            )\n            (window_attn): PreNorm(\n              (norm): LayerNorm((1024,), eps=1e-05, elementwise_affine=True)\n              (fn): WindowAttention(\n                (qkv): Linear(in_features=1024, out_features=3072, bias=True)\n                (proj): Linear(in_features=1024, out_features=1024, bias=True)\n                (softmax): Softmax(dim=-1)\n              )\n              (drop_path): DropPath(drop_prob=0.035)\n            )\n            (conv2): PreNorm(\n              (fn): DepthWiseConv2d(\n                (dw): Conv2d(1024, 1024, kernel_size=(3, 3), stride=(1, 1), padding=(1, 1), groups=1024)\n              )\n            )\n            (ffn): PreNorm(\n              (norm): LayerNorm((1024,), eps=1e-05, elementwise_affine=True)\n              (fn): Mlp(\n                (net): Sequential(\n                  (fc1): Linear(in_features=1024, out_features=4096, bias=True)\n                  (act): GELU(approximate='none')\n                  (fc2): Linear(in_features=4096, out_features=1024, bias=True)\n                )\n              )\n              (drop_path): DropPath(drop_prob=0.035)\n            )\n          )\n          (channel_block): ChannelBlock(\n            (conv1): PreNorm(\n              (fn): DepthWiseConv2d(\n                (dw): Conv2d(1024, 1024, kernel_size=(3, 3), stride=(1, 1), padding=(1, 1), groups=1024)\n              )\n            )\n            (channel_attn): PreNorm(\n              (norm): LayerNorm((1024,), eps=1e-05, elementwise_affine=True)\n              (fn): ChannelAttention(\n                (qkv): Linear(in_features=1024, out_features=3072, bias=True)\n                (proj): Linear(in_features=1024, out_features=1024, bias=True)\n              )\n              (drop_path): DropPath(drop_prob=0.039)\n            )\n            (conv2): PreNorm(\n              (fn): DepthWiseConv2d(\n                (dw): Conv2d(1024, 1024, kernel_size=(3, 3), stride=(1, 1), padding=(1, 1), groups=1024)\n              )\n            )\n            (ffn): PreNorm(\n              (norm): LayerNorm((1024,), eps=1e-05, elementwise_affine=True)\n              (fn): Mlp(\n                (net): Sequential(\n                  (fc1): Linear(in_features=1024, out_features=4096, bias=True)\n                  (act): GELU(approximate='none')\n                  (fc2): Linear(in_features=4096, out_features=1024, bias=True)\n                )\n              )\n              (drop_path): DropPath(drop_prob=0.039)\n            )\n          )\n        )\n        (3): MySequential(\n          (spatial_block): SpatialBlock(\n            (conv1): PreNorm(\n              (fn): DepthWiseConv2d(\n                (dw): Conv2d(1024, 1024, kernel_size=(3, 3), stride=(1, 1), padding=(1, 1), groups=1024)\n              )\n            )\n            (window_attn): PreNorm(\n              (norm): LayerNorm((1024,), eps=1e-05, elementwise_affine=True)\n              (fn): WindowAttention(\n                (qkv): Linear(in_features=1024, out_features=3072, bias=True)\n                (proj): Linear(in_features=1024, out_features=1024, bias=True)\n                (softmax): Softmax(dim=-1)\n              )\n              (drop_path): DropPath(drop_prob=0.043)\n            )\n            (conv2): PreNorm(\n              (fn): DepthWiseConv2d(\n                (dw): Conv2d(1024, 1024, kernel_size=(3, 3), stride=(1, 1), padding=(1, 1), groups=1024)\n              )\n            )\n            (ffn): PreNorm(\n              (norm): LayerNorm((1024,), eps=1e-05, elementwise_affine=True)\n              (fn): Mlp(\n                (net): Sequential(\n                  (fc1): Linear(in_features=1024, out_features=4096, bias=True)\n                  (act): GELU(approximate='none')\n                  (fc2): Linear(in_features=4096, out_features=1024, bias=True)\n                )\n              )\n              (drop_path): DropPath(drop_prob=0.043)\n            )\n          )\n          (channel_block): ChannelBlock(\n            (conv1): PreNorm(\n              (fn): DepthWiseConv2d(\n                (dw): Conv2d(1024, 1024, kernel_size=(3, 3), stride=(1, 1), padding=(1, 1), groups=1024)\n              )\n            )\n            (channel_attn): PreNorm(\n              (norm): LayerNorm((1024,), eps=1e-05, elementwise_affine=True)\n              (fn): ChannelAttention(\n                (qkv): Linear(in_features=1024, out_features=3072, bias=True)\n                (proj): Linear(in_features=1024, out_features=1024, bias=True)\n              )\n              (drop_path): DropPath(drop_prob=0.048)\n            )\n            (conv2): PreNorm(\n              (fn): DepthWiseConv2d(\n                (dw): Conv2d(1024, 1024, kernel_size=(3, 3), stride=(1, 1), padding=(1, 1), groups=1024)\n              )\n            )\n            (ffn): PreNorm(\n              (norm): LayerNorm((1024,), eps=1e-05, elementwise_affine=True)\n              (fn): Mlp(\n                (net): Sequential(\n                  (fc1): Linear(in_features=1024, out_features=4096, bias=True)\n                  (act): GELU(approximate='none')\n                  (fc2): Linear(in_features=4096, out_features=1024, bias=True)\n                )\n              )\n              (drop_path): DropPath(drop_prob=0.048)\n            )\n          )\n        )\n        (4): MySequential(\n          (spatial_block): SpatialBlock(\n            (conv1): PreNorm(\n              (fn): DepthWiseConv2d(\n                (dw): Conv2d(1024, 1024, kernel_size=(3, 3), stride=(1, 1), padding=(1, 1), groups=1024)\n              )\n            )\n            (window_attn): PreNorm(\n              (norm): LayerNorm((1024,), eps=1e-05, elementwise_affine=True)\n              (fn): WindowAttention(\n                (qkv): Linear(in_features=1024, out_features=3072, bias=True)\n                (proj): Linear(in_features=1024, out_features=1024, bias=True)\n                (softmax): Softmax(dim=-1)\n              )\n              (drop_path): DropPath(drop_prob=0.052)\n            )\n            (conv2): PreNorm(\n              (fn): DepthWiseConv2d(\n                (dw): Conv2d(1024, 1024, kernel_size=(3, 3), stride=(1, 1), padding=(1, 1), groups=1024)\n              )\n            )\n            (ffn): PreNorm(\n              (norm): LayerNorm((1024,), eps=1e-05, elementwise_affine=True)\n              (fn): Mlp(\n                (net): Sequential(\n                  (fc1): Linear(in_features=1024, out_features=4096, bias=True)\n                  (act): GELU(approximate='none')\n                  (fc2): Linear(in_features=4096, out_features=1024, bias=True)\n                )\n              )\n              (drop_path): DropPath(drop_prob=0.052)\n            )\n          )\n          (channel_block): ChannelBlock(\n            (conv1): PreNorm(\n              (fn): DepthWiseConv2d(\n                (dw): Conv2d(1024, 1024, kernel_size=(3, 3), stride=(1, 1), padding=(1, 1), groups=1024)\n              )\n            )\n            (channel_attn): PreNorm(\n              (norm): LayerNorm((1024,), eps=1e-05, elementwise_affine=True)\n              (fn): ChannelAttention(\n                (qkv): Linear(in_features=1024, out_features=3072, bias=True)\n                (proj): Linear(in_features=1024, out_features=1024, bias=True)\n              )\n              (drop_path): DropPath(drop_prob=0.057)\n            )\n            (conv2): PreNorm(\n              (fn): DepthWiseConv2d(\n                (dw): Conv2d(1024, 1024, kernel_size=(3, 3), stride=(1, 1), padding=(1, 1), groups=1024)\n              )\n            )\n            (ffn): PreNorm(\n              (norm): LayerNorm((1024,), eps=1e-05, elementwise_affine=True)\n              (fn): Mlp(\n                (net): Sequential(\n                  (fc1): Linear(in_features=1024, out_features=4096, bias=True)\n                  (act): GELU(approximate='none')\n                  (fc2): Linear(in_features=4096, out_features=1024, bias=True)\n                )\n              )\n              (drop_path): DropPath(drop_prob=0.057)\n            )\n          )\n        )\n        (5): MySequential(\n          (spatial_block): SpatialBlock(\n            (conv1): PreNorm(\n              (fn): DepthWiseConv2d(\n                (dw): Conv2d(1024, 1024, kernel_size=(3, 3), stride=(1, 1), padding=(1, 1), groups=1024)\n              )\n            )\n            (window_attn): PreNorm(\n              (norm): LayerNorm((1024,), eps=1e-05, elementwise_affine=True)\n              (fn): WindowAttention(\n                (qkv): Linear(in_features=1024, out_features=3072, bias=True)\n                (proj): Linear(in_features=1024, out_features=1024, bias=True)\n                (softmax): Softmax(dim=-1)\n              )\n              (drop_path): DropPath(drop_prob=0.061)\n            )\n            (conv2): PreNorm(\n              (fn): DepthWiseConv2d(\n                (dw): Conv2d(1024, 1024, kernel_size=(3, 3), stride=(1, 1), padding=(1, 1), groups=1024)\n              )\n            )\n            (ffn): PreNorm(\n              (norm): LayerNorm((1024,), eps=1e-05, elementwise_affine=True)\n              (fn): Mlp(\n                (net): Sequential(\n                  (fc1): Linear(in_features=1024, out_features=4096, bias=True)\n                  (act): GELU(approximate='none')\n                  (fc2): Linear(in_features=4096, out_features=1024, bias=True)\n                )\n              )\n              (drop_path): DropPath(drop_prob=0.061)\n            )\n          )\n          (channel_block): ChannelBlock(\n            (conv1): PreNorm(\n              (fn): DepthWiseConv2d(\n                (dw): Conv2d(1024, 1024, kernel_size=(3, 3), stride=(1, 1), padding=(1, 1), groups=1024)\n              )\n            )\n            (channel_attn): PreNorm(\n              (norm): LayerNorm((1024,), eps=1e-05, elementwise_affine=True)\n              (fn): ChannelAttention(\n                (qkv): Linear(in_features=1024, out_features=3072, bias=True)\n                (proj): Linear(in_features=1024, out_features=1024, bias=True)\n              )\n              (drop_path): DropPath(drop_prob=0.065)\n            )\n            (conv2): PreNorm(\n              (fn): DepthWiseConv2d(\n                (dw): Conv2d(1024, 1024, kernel_size=(3, 3), stride=(1, 1), padding=(1, 1), groups=1024)\n              )\n            )\n            (ffn): PreNorm(\n              (norm): LayerNorm((1024,), eps=1e-05, elementwise_affine=True)\n              (fn): Mlp(\n                (net): Sequential(\n                  (fc1): Linear(in_features=1024, out_features=4096, bias=True)\n                  (act): GELU(approximate='none')\n                  (fc2): Linear(in_features=4096, out_features=1024, bias=True)\n                )\n              )\n              (drop_path): DropPath(drop_prob=0.065)\n            )\n          )\n        )\n        (6): MySequential(\n          (spatial_block): SpatialBlock(\n            (conv1): PreNorm(\n              (fn): DepthWiseConv2d(\n                (dw): Conv2d(1024, 1024, kernel_size=(3, 3), stride=(1, 1), padding=(1, 1), groups=1024)\n              )\n            )\n            (window_attn): PreNorm(\n              (norm): LayerNorm((1024,), eps=1e-05, elementwise_affine=True)\n              (fn): WindowAttention(\n                (qkv): Linear(in_features=1024, out_features=3072, bias=True)\n                (proj): Linear(in_features=1024, out_features=1024, bias=True)\n                (softmax): Softmax(dim=-1)\n              )\n              (drop_path): DropPath(drop_prob=0.070)\n            )\n            (conv2): PreNorm(\n              (fn): DepthWiseConv2d(\n                (dw): Conv2d(1024, 1024, kernel_size=(3, 3), stride=(1, 1), padding=(1, 1), groups=1024)\n              )\n            )\n            (ffn): PreNorm(\n              (norm): LayerNorm((1024,), eps=1e-05, elementwise_affine=True)\n              (fn): Mlp(\n                (net): Sequential(\n                  (fc1): Linear(in_features=1024, out_features=4096, bias=True)\n                  (act): GELU(approximate='none')\n                  (fc2): Linear(in_features=4096, out_features=1024, bias=True)\n                )\n              )\n              (drop_path): DropPath(drop_prob=0.070)\n            )\n          )\n          (channel_block): ChannelBlock(\n            (conv1): PreNorm(\n              (fn): DepthWiseConv2d(\n                (dw): Conv2d(1024, 1024, kernel_size=(3, 3), stride=(1, 1), padding=(1, 1), groups=1024)\n              )\n            )\n            (channel_attn): PreNorm(\n              (norm): LayerNorm((1024,), eps=1e-05, elementwise_affine=True)\n              (fn): ChannelAttention(\n                (qkv): Linear(in_features=1024, out_features=3072, bias=True)\n                (proj): Linear(in_features=1024, out_features=1024, bias=True)\n              )\n              (drop_path): DropPath(drop_prob=0.074)\n            )\n            (conv2): PreNorm(\n              (fn): DepthWiseConv2d(\n                (dw): Conv2d(1024, 1024, kernel_size=(3, 3), stride=(1, 1), padding=(1, 1), groups=1024)\n              )\n            )\n            (ffn): PreNorm(\n              (norm): LayerNorm((1024,), eps=1e-05, elementwise_affine=True)\n              (fn): Mlp(\n                (net): Sequential(\n                  (fc1): Linear(in_features=1024, out_features=4096, bias=True)\n                  (act): GELU(approximate='none')\n                  (fc2): Linear(in_features=4096, out_features=1024, bias=True)\n                )\n              )\n              (drop_path): DropPath(drop_prob=0.074)\n            )\n          )\n        )\n        (7): MySequential(\n          (spatial_block): SpatialBlock(\n            (conv1): PreNorm(\n              (fn): DepthWiseConv2d(\n                (dw): Conv2d(1024, 1024, kernel_size=(3, 3), stride=(1, 1), padding=(1, 1), groups=1024)\n              )\n            )\n            (window_attn): PreNorm(\n              (norm): LayerNorm((1024,), eps=1e-05, elementwise_affine=True)\n              (fn): WindowAttention(\n                (qkv): Linear(in_features=1024, out_features=3072, bias=True)\n                (proj): Linear(in_features=1024, out_features=1024, bias=True)\n                (softmax): Softmax(dim=-1)\n              )\n              (drop_path): DropPath(drop_prob=0.078)\n            )\n            (conv2): PreNorm(\n              (fn): DepthWiseConv2d(\n                (dw): Conv2d(1024, 1024, kernel_size=(3, 3), stride=(1, 1), padding=(1, 1), groups=1024)\n              )\n            )\n            (ffn): PreNorm(\n              (norm): LayerNorm((1024,), eps=1e-05, elementwise_affine=True)\n              (fn): Mlp(\n                (net): Sequential(\n                  (fc1): Linear(in_features=1024, out_features=4096, bias=True)\n                  (act): GELU(approximate='none')\n                  (fc2): Linear(in_features=4096, out_features=1024, bias=True)\n                )\n              )\n              (drop_path): DropPath(drop_prob=0.078)\n            )\n          )\n          (channel_block): ChannelBlock(\n            (conv1): PreNorm(\n              (fn): DepthWiseConv2d(\n                (dw): Conv2d(1024, 1024, kernel_size=(3, 3), stride=(1, 1), padding=(1, 1), groups=1024)\n              )\n            )\n            (channel_attn): PreNorm(\n              (norm): LayerNorm((1024,), eps=1e-05, elementwise_affine=True)\n              (fn): ChannelAttention(\n                (qkv): Linear(in_features=1024, out_features=3072, bias=True)\n                (proj): Linear(in_features=1024, out_features=1024, bias=True)\n              )\n              (drop_path): DropPath(drop_prob=0.083)\n            )\n            (conv2): PreNorm(\n              (fn): DepthWiseConv2d(\n                (dw): Conv2d(1024, 1024, kernel_size=(3, 3), stride=(1, 1), padding=(1, 1), groups=1024)\n              )\n            )\n            (ffn): PreNorm(\n              (norm): LayerNorm((1024,), eps=1e-05, elementwise_affine=True)\n              (fn): Mlp(\n                (net): Sequential(\n                  (fc1): Linear(in_features=1024, out_features=4096, bias=True)\n                  (act): GELU(approximate='none')\n                  (fc2): Linear(in_features=4096, out_features=1024, bias=True)\n                )\n              )\n              (drop_path): DropPath(drop_prob=0.083)\n            )\n          )\n        )\n        (8): MySequential(\n          (spatial_block): SpatialBlock(\n            (conv1): PreNorm(\n              (fn): DepthWiseConv2d(\n                (dw): Conv2d(1024, 1024, kernel_size=(3, 3), stride=(1, 1), padding=(1, 1), groups=1024)\n              )\n            )\n            (window_attn): PreNorm(\n              (norm): LayerNorm((1024,), eps=1e-05, elementwise_affine=True)\n              (fn): WindowAttention(\n                (qkv): Linear(in_features=1024, out_features=3072, bias=True)\n                (proj): Linear(in_features=1024, out_features=1024, bias=True)\n                (softmax): Softmax(dim=-1)\n              )\n              (drop_path): DropPath(drop_prob=0.087)\n            )\n            (conv2): PreNorm(\n              (fn): DepthWiseConv2d(\n                (dw): Conv2d(1024, 1024, kernel_size=(3, 3), stride=(1, 1), padding=(1, 1), groups=1024)\n              )\n            )\n            (ffn): PreNorm(\n              (norm): LayerNorm((1024,), eps=1e-05, elementwise_affine=True)\n              (fn): Mlp(\n                (net): Sequential(\n                  (fc1): Linear(in_features=1024, out_features=4096, bias=True)\n                  (act): GELU(approximate='none')\n                  (fc2): Linear(in_features=4096, out_features=1024, bias=True)\n                )\n              )\n              (drop_path): DropPath(drop_prob=0.087)\n            )\n          )\n          (channel_block): ChannelBlock(\n            (conv1): PreNorm(\n              (fn): DepthWiseConv2d(\n                (dw): Conv2d(1024, 1024, kernel_size=(3, 3), stride=(1, 1), padding=(1, 1), groups=1024)\n              )\n            )\n            (channel_attn): PreNorm(\n              (norm): LayerNorm((1024,), eps=1e-05, elementwise_affine=True)\n              (fn): ChannelAttention(\n                (qkv): Linear(in_features=1024, out_features=3072, bias=True)\n                (proj): Linear(in_features=1024, out_features=1024, bias=True)\n              )\n              (drop_path): DropPath(drop_prob=0.091)\n            )\n            (conv2): PreNorm(\n              (fn): DepthWiseConv2d(\n                (dw): Conv2d(1024, 1024, kernel_size=(3, 3), stride=(1, 1), padding=(1, 1), groups=1024)\n              )\n            )\n            (ffn): PreNorm(\n              (norm): LayerNorm((1024,), eps=1e-05, elementwise_affine=True)\n              (fn): Mlp(\n                (net): Sequential(\n                  (fc1): Linear(in_features=1024, out_features=4096, bias=True)\n                  (act): GELU(approximate='none')\n                  (fc2): Linear(in_features=4096, out_features=1024, bias=True)\n                )\n              )\n              (drop_path): DropPath(drop_prob=0.091)\n            )\n          )\n        )\n      )\n      (3): MySequential(\n        (0): MySequential(\n          (spatial_block): SpatialBlock(\n            (conv1): PreNorm(\n              (fn): DepthWiseConv2d(\n                (dw): Conv2d(2048, 2048, kernel_size=(3, 3), stride=(1, 1), padding=(1, 1), groups=2048)\n              )\n            )\n            (window_attn): PreNorm(\n              (norm): LayerNorm((2048,), eps=1e-05, elementwise_affine=True)\n              (fn): WindowAttention(\n                (qkv): Linear(in_features=2048, out_features=6144, bias=True)\n                (proj): Linear(in_features=2048, out_features=2048, bias=True)\n                (softmax): Softmax(dim=-1)\n              )\n              (drop_path): DropPath(drop_prob=0.096)\n            )\n            (conv2): PreNorm(\n              (fn): DepthWiseConv2d(\n                (dw): Conv2d(2048, 2048, kernel_size=(3, 3), stride=(1, 1), padding=(1, 1), groups=2048)\n              )\n            )\n            (ffn): PreNorm(\n              (norm): LayerNorm((2048,), eps=1e-05, elementwise_affine=True)\n              (fn): Mlp(\n                (net): Sequential(\n                  (fc1): Linear(in_features=2048, out_features=8192, bias=True)\n                  (act): GELU(approximate='none')\n                  (fc2): Linear(in_features=8192, out_features=2048, bias=True)\n                )\n              )\n              (drop_path): DropPath(drop_prob=0.096)\n            )\n          )\n          (channel_block): ChannelBlock(\n            (conv1): PreNorm(\n              (fn): DepthWiseConv2d(\n                (dw): Conv2d(2048, 2048, kernel_size=(3, 3), stride=(1, 1), padding=(1, 1), groups=2048)\n              )\n            )\n            (channel_attn): PreNorm(\n              (norm): LayerNorm((2048,), eps=1e-05, elementwise_affine=True)\n              (fn): ChannelAttention(\n                (qkv): Linear(in_features=2048, out_features=6144, bias=True)\n                (proj): Linear(in_features=2048, out_features=2048, bias=True)\n              )\n              (drop_path): DropPath(drop_prob=0.100)\n            )\n            (conv2): PreNorm(\n              (fn): DepthWiseConv2d(\n                (dw): Conv2d(2048, 2048, kernel_size=(3, 3), stride=(1, 1), padding=(1, 1), groups=2048)\n              )\n            )\n            (ffn): PreNorm(\n              (norm): LayerNorm((2048,), eps=1e-05, elementwise_affine=True)\n              (fn): Mlp(\n                (net): Sequential(\n                  (fc1): Linear(in_features=2048, out_features=8192, bias=True)\n                  (act): GELU(approximate='none')\n                  (fc2): Linear(in_features=8192, out_features=2048, bias=True)\n                )\n              )\n              (drop_path): DropPath(drop_prob=0.100)\n            )\n          )\n        )\n      )\n    )\n    (avgpool): AdaptiveAvgPool1d(output_size=1)\n  )\n  (image_proj_norm): LayerNorm((1024,), eps=1e-05, elementwise_affine=True)\n  (image_pos_embed): LearnedAbsolutePositionEmbedding2D(\n    (row_embeddings): Embedding(50, 1024)\n    (column_embeddings): Embedding(50, 1024)\n  )\n  (visual_temporal_embed): PositionalEmbeddingCosine1D()\n  (language_model): Florence2LanguageForConditionalGeneration(\n    (model): Florence2LanguageModel(\n      (shared): Embedding(51289, 1024, padding_idx=1)\n      (encoder): Florence2Encoder(\n        (embed_tokens): Florence2ScaledWordEmbedding(51289, 1024, padding_idx=1)\n        (embed_positions): Florence2LearnedPositionalEmbedding(1026, 1024)\n        (layers): ModuleList(\n          (0-11): 12 x Florence2EncoderLayer(\n            (self_attn): Florence2SdpaAttention(\n              (k_proj): Linear(in_features=1024, out_features=1024, bias=True)\n              (v_proj): Linear(in_features=1024, out_features=1024, bias=True)\n              (q_proj): Linear(in_features=1024, out_features=1024, bias=True)\n              (out_proj): Linear(in_features=1024, out_features=1024, bias=True)\n            )\n            (self_attn_layer_norm): LayerNorm((1024,), eps=1e-05, elementwise_affine=True)\n            (activation_fn): GELUActivation()\n            (fc1): Linear(in_features=1024, out_features=4096, bias=True)\n            (fc2): Linear(in_features=4096, out_features=1024, bias=True)\n            (final_layer_norm): LayerNorm((1024,), eps=1e-05, elementwise_affine=True)\n          )\n        )\n        (layernorm_embedding): LayerNorm((1024,), eps=1e-05, elementwise_affine=True)\n      )\n      (decoder): Florence2Decoder(\n        (embed_tokens): Florence2ScaledWordEmbedding(51289, 1024, padding_idx=1)\n        (embed_positions): Florence2LearnedPositionalEmbedding(1026, 1024)\n        (layers): ModuleList(\n          (0-11): 12 x Florence2DecoderLayer(\n            (self_attn): Florence2SdpaAttention(\n              (k_proj): Linear(in_features=1024, out_features=1024, bias=True)\n              (v_proj): Linear(in_features=1024, out_features=1024, bias=True)\n              (q_proj): Linear(in_features=1024, out_features=1024, bias=True)\n              (out_proj): Linear(in_features=1024, out_features=1024, bias=True)\n            )\n            (activation_fn): GELUActivation()\n            (self_attn_layer_norm): LayerNorm((1024,), eps=1e-05, elementwise_affine=True)\n            (encoder_attn): Florence2SdpaAttention(\n              (k_proj): Linear(in_features=1024, out_features=1024, bias=True)\n              (v_proj): Linear(in_features=1024, out_features=1024, bias=True)\n              (q_proj): Linear(in_features=1024, out_features=1024, bias=True)\n              (out_proj): Linear(in_features=1024, out_features=1024, bias=True)\n            )\n            (encoder_attn_layer_norm): LayerNorm((1024,), eps=1e-05, elementwise_affine=True)\n            (fc1): Linear(in_features=1024, out_features=4096, bias=True)\n            (fc2): Linear(in_features=4096, out_features=1024, bias=True)\n            (final_layer_norm): LayerNorm((1024,), eps=1e-05, elementwise_affine=True)\n          )\n        )\n        (layernorm_embedding): LayerNorm((1024,), eps=1e-05, elementwise_affine=True)\n      )\n    )\n    (lm_head): Linear(in_features=1024, out_features=51289, bias=False)\n  )\n)"
  }
]